mnist-logistic.pth (torch_old, 31956 bytes, 2 tensors)

linear.weight f4 [10, 784]
0.0225625 -0.024932593 0.02223811 -0.03476061 0.023220401 0.009274431 -0.015565315 0.019884933
-0.014387114 -0.03106602 0.005587522 -0.02903917 0.011631397 0.010920307 -0.027277168 -0.011197018
-0.026104923 -0.01335299 -0.014441414 0.03335434 -0.01776075 -0.0009158738 0.03429437 -0.034157123
-0.0045652557 -0.013139015 -0.020767197 -0.032311063 -0.028395202 -0.0055761803 0.022564892 -0.0015290082
0.020613946 0.030298071 0.033864412 -0.022622582 0.020487892 0.01151292 0.012467618 0.0055838875
0.02513076 -0.007818039 -0.03008574 0.014012463 0.015484581 0.008184519 0.0312289 0.026929352
-0.0136176385 -0.011937157 0.0025746655 0.014700478 -0.025264451 0.026073944 -0.0024715625 0.010190569
-0.008374972 -0.013264371 0.03467966 0.005373567 0.0030333956 -0.004816645 0.031860113 0.019295635
-0.02691718 0.029873552 0.0011982617 -0.005358563 -0.0069023543 -0.007504679 -0.010533748 0.008996228
-0.0049352655 0.023178453 0.0031347545 -0.021516718 0.02981579 -0.004310243 -0.029861487 0.005417702
-0.031960692 0.0054246676 0.018106416 0.0110780075 0.0019735694 -0.02607771 0.0020776943 0.034463864
-0.035040583 -0.02857472 -0.009800289 0.03317568 0.032837585 -0.03239251 -0.003920275 -0.026218202
-0.039029516 -0.0066305143 -0.04066236 -0.0067862123 -0.028085055 -0.04621859 -0.010335263 0.02220547
-0.008891167 -0.014962486 -0.011590149 0.002321804 -0.022834968 0.010851383 -0.03494385 -0.022723919
0.025819626 -0.028052049 -0.015944088 0.024121193 -0.01834048 -0.023209505 -0.015685525 -0.030996019
-0.01411565 0.018217258 -0.048909016 -0.0035816305 -0.019163381 0.013498114 0.021355234 -0.006312249
-0.018350309 -0.023912951 0.010151501 -0.014767028 0.008772827 -0.009695965 0.025229426 -0.026185941
0.024529906 -0.012134593 -0.017548783 0.0053399066 -0.032428164 0.01695633 -0.027422857 -0.023717368
-0.006242051 -0.019790558 -0.016209325 0.022647642 0.010032249 0.008401351 0.009449727 0.019000487
-0.030960964 -0.019353356 0.018762797 0.032716837 0.039337497 0.07425428 0.018975295 0.0122465445
-0.016869728 -0.03111572 -0.0058763134 0.009420561 -0.0352686 -0.0126571385 -0.002861323 -0.008527822
0.025968224 -0.019922063 -0.0037874586 -0.033893727 0.019717332 -0.040102612 -0.022394435 -0.006982499
0.001909818 -0.0029857454 -0.029438857 -0.001947059 0.022651112 0.027503382 0.042608656 0.056006357
0.08317374 0.044310916 0.03615837 0.07338741 0.037666254 -0.014509693 0.010553996 0.013744013
-0.012527558 -0.025644638 -0.022157516 -0.004828973 -0.014163525 -0.014303658 -0.006763718 -0.022648266
-0.024421167 0.014411726 0.011871024 -0.038591925 -0.018130412 -0.016242053 0.0105664525 -0.029319918
0.007440843 0.05260477 0.054472536 0.050053645 0.070514396 0.07913182 0.030398373 0.020084044
0.026803311 -0.012469342 0.036195956 0.0015322039 0.01541985 -0.013480936 -0.0060029305 0.0163752
-0.016851336 0.009007434 0.00834392 0.015279568 0.00526699 -0.033143494 -0.043273848 -0.048606336
-0.00026401316 -0.03019298 -0.0025648372 -0.01093474 0.048674844 0.049112286 -0.0066944836 0.026038922
0.019033032 0.06342652 0.02560289 0.07522205 0.045172542 0.028555023 0.04415262 -0.004331403
-0.030857414 -0.03748692 -0.0360343 -0.013033562 -0.0285646 0.03177646 -0.031359784 -0.013569973
00000000: fed4 b83c 703f ccbc b22c b63c 2461 0ebd
00000010: b638 be3c c8f3 173c aa05 7fbc bae5 a23c
00000020: eeb7 6bbc 2a7e febc 8817 b73b 8ee3 edbc
00000030: 9d91 3e3c 16eb 323c 5e74 dfbc b373 37bc
00000040: fed9 d5bc 80c6 5abc ae9b 6cbc 8f9e 083d
00000050: fe7e 91bc 4017 70ba 4178 0c3d 57e8 0bbd
00000060: 2498 95bb 0645 57bc f81f aabc 9b58 04bd
00000070: 0e9d e8bc 64b8 b6bb 02da b83c 0069 c8ba
00000080: 94de a83c a933 f83c 69b5 0a3d fe52 b9bc
00000090: 39d6 a73c b0a0 3c3c fb44 4c3c 0bf9 b63b
000000a0: 06df cd3c 3b17 00bc 5f76 f6bc 8894 653c
000000b0: 0ab3 7d3c 5c18 063c c0d3 ff3c f29a dc3c
000000c0: 841c 5fbc 1194 43bc b8bb 283b 46da 703c
000000d0: 65f7 cebc 0699 d53c f0f9 21bb 58f6 263c
000000e0: 2e37 09bc ce52 59bc 420c 0e3d bf14 b03b
000000f0: efcb 463b f2d4 9dbb c07f 023d e111 9e3c
00000100: 6b81 dcbc 61b9 f43c fe0e 9d3a e296 afbb
00000110: 252d e2bb cfe9 f5bb be95 2cbc ea64 133c
00000120: 02b8 a1bb bde0 bd3c 7470 4d3b d443 b0bc
00000130: 3e40 f43c f03c 8dbb 14a0 f4bc fa86 b13b
00000140: 37e9 02bd 69c1 b13b e853 943c 8880 353c
00000150: 0057 013b eca0 d5bc ed29 083b fb29 0d3d
00000160: b786 0fbd 8815 eabc 6491 20bc 39e3 073d
00000170: b480 063d 02ae 04bd a675 80bb 8ec7 d6bc
00000180: 6add 1fbd c944 d9bb 938d 26bd e05e debb
00000190: a112 e6bc b44f 3dbd 3c55 29bc 3fe8 b53c
000001a0: 42ac 11bc 3725 75bc 9ce4 3dbc 6829 183b
000001b0: 6610 bbbc 00ca 313c 4821 0fbd 8327 babc
000001c0: ae83 d33c 69cd e5bc 2d9d 82bc cf99 c53c
000001d0: c63e 96bc dc21 bebc ee7e 80bc 5deb fdbc
000001e0: 5445 67bc 5c3c 953c d254 48bd cab9 6abb
000001f0: 86fc 9cbc 3227 5d3c 2cf1 ae3c fcd6 cebb
00000200: 6353 96bc 18e5 c3bc 7b52 263c 68f1 71bc
00000210: e7bb 0f3c d3db 1ebc f1ad ce3c e683 d6bc
00000220: f1f2 c83c 2cd0 46bc 77c2 8fbc 62fa ae3b
00000230: 65d3 04bd 00e8 8a3c e6a5 e0bc ed4a c2bc
00000240: 1e8a ccbb cf1f a2bc 6bc9 84bc 8c87 b93c
00000250: 4d5e 243c d2a5 093c 07d3 1a3c e9a6 9b3c
00000260: d9a1 fdbc ee8a 9ebc 70b4 993c 1702 063d
00000270: 5b20 213d a112 983d 1472 9b3c bba5 483c
00000280: 6232 8abc 65e6 febc 178e c0bb b258 1a3c
00000290: cf75 10bd e35f 4fbc 0985 3bbb 47b8 0bbc
000002a0: 50bb d43c 9833 a3bc 0337 78bb 26d4 0abd
000002b0: 3e86 a13c a342 24bd 8974 b7bc 72cd e4bb
000002c0: dc52 fa3a 7fac 43bb c229 f1bc 7534 ffba
000002d0: d38e b93c c64e e13c 6a86 2e3d ec66 653d
000002e0: fe56 aa3d 5d7f 353d cd1a 143d 234c 963d
000002f0: ee47 1a3d 10ba 6dbc abea 2c3c 922e 613c
00000300: 6340 4dbc b414 d2bc ae83 b5bc 5d3c 9ebb
00000310: 210e 68bc e459 6abc 2ea2 ddbb db88 b9bc
00000320: e60e c8bc 291f 6c3c af7e 423c 9112 1ebd
00000330: 3b86 94bc 0e0e 85bc ea1e 2d3c 5330 f0bc
00000340: 51d2 f33b 1978 573d 981e 5f3d 0d05 4d3d
00000350: da69 903d dd0f a23d 0206 f93c 4b87 a43c
00000360: 9e92 db3c 364c 4cbc 3642 143d 3bd4 c83a
00000370: 8aa3 7c3c 25df 5cbc 3bb4 c4bb 4925 863c
00000380: d00b 8abc eb93 133c f0b4 083c 2757 7a3c
00000390: b796 ac3b 79c1 07bd eb3f 31bd 7017 47bd
000003a0: 3f6b 8ab9 4557 f7bc d416 28bb a027 33bc
000003b0: 465f 473d f729 493d 665d dbbb 944f d53c
000003c0: 29eb 9b3c c3e5 813d 27bd d13c 050e 9a3d
000003d0: d806 393d 39ec e93c 61d9 343d 71ee 8dbb
000003e0: b0c8 fcbc e28b 19bd b498 13bd b98a 55bc
000003f0: 4f00 eabc 0928 023d 1e73 00bd 9854 5ebc

linear.bias f4 [10]
-0.023520283 0.11427779 -0.033669036 -0.057068773 0.042469233 0.04291612 -0.030717425 0.049481172
-0.09233611 -0.050381053
00000000: 9cad c0bc 790a ea3d 8be8 09bd f2c0 69bd
00000010: 38f4 2d3d d0c8 2f3d 1ca3 fbbc c5ac 4a3d
00000020: b71a bdbd 5d5c 4ebd
